…
I1107 09:16:19.288090  8398 net.cpp:294] The NetState phase (0) differed from the phase (1) specified by a rule in layer data
I1107 09:16:19.288409  8398 net.cpp:51] Initializing net from parameters: 
name: "RenderForCNN"
state {
  phase: TRAIN
  level: 0
  stage: ""
}
layer {
  name: "data"
  type: "Data"
  top: "data"
  top: "label"
  include {
    phase: TRAIN
  }
  transform_param {
    mirror: true
    mean_file: "/home/cad/disk/linux/RenderForCNN-master/train/imagenet_mean.binaryproto"
  }
  data_param {
    source: "/media/cad/3fafa74e-c460-4512-8fb2-4a08ea3c1ef7/classify/img_train_lmdb"
    batch_size: 192
    backend: LMDB
  }
}
layer {
  name: "conv1"
  type: "Convolution"
  bottom: "data"
  top: "conv1"
  param {
    lr_mult: 0
    decay_mult: 0
  }
  param {
    lr_mult: 0
    decay_mult: 0
  }
  convolution_param {
    num_output: 96
    kernel_size: 11
    stride: 4
  }
}
layer {
  name: "relu1"
  type: "ReLU"
  bottom: "conv1"
  top: "conv1"
}
layer {
  name: "pool1"
  type: "Pooling"
  bottom: "conv1"
  top: "pool1"
  pooling_param {
    pool: MAX
    kernel_size: 3
    stride: 2
  }
}
layer {
  name: "norm1"
  type: "LRN"
  bottom: "pool1"
  top: "norm1"
  lrn_param {
    local_size: 5
    alpha: 0.0001
    beta: 0.75
  }
}
layer {
  name: "conv2"
  type: "Convolution"
  bottom: "norm1"
  top: "conv2"
  param {
    lr_mult: 0
    decay_mult: 0
  }
  param {
    lr_mult: 0
    decay_mult: 0
  }
  convolution_param {
    num_output: 256
    pad: 2
    kernel_size: 5
    group: 2
  }
}
layer {
  name: "relu2"
  type: "ReLU"
  bottom: "conv2"
  top: "conv2"
}
layer {
  name: "pool2"
  type: "Pooling"
  bottom: "conv2"
  top: "pool2"
  pooling_param {
    pool: MAX
    kernel_size: 3
    stride: 2
  }
}
layer {
  name: "norm2"
  type: "LRN"
  bottom: "pool2"
  top: "norm2"
  lrn_param {
    local_size: 5
    alpha: 0.0001
    beta: 0.75
  }
}
layer {
  name: "conv3"
  type: "Convolution"
  bottom: "norm2"
  top: "conv3"
  param {
    lr_mult: 1
    decay_mult: 1
  }
  param {
    lr_mult: 1
    decay_mult: 0
  }
  convolution_param {
    num_output: 384
    pad: 1
    kernel_size: 3
  }
}
layer {
  name: "relu3"
  type: "ReLU"
  bottom: "conv3"
  top: "conv3"
}
layer {
  name: "conv4"
  type: "Convolution"
  bottom: "conv3"
  top: "conv4"
  param {
    lr_mult: 1
    decay_mult: 1
  }
  param {
    lr_mult: 1
    decay_mult: 0
  }
  convolution_param {
    num_output: 384
    pad: 1
    kernel_size: 3
    group: 2
  }
}
layer {
  name: "relu4"
  type: "ReLU"
  bottom: "conv4"
  top: "conv4"
}
layer {
  name: "conv5"
  type: "Convolution"
  bottom: "conv4"
  top: "conv5"
  param {
    lr_mult: 1
    decay_mult: 1
  }
  param {
    lr_mult: 1
    decay_mult: 0
  }
  convolution_param {
    num_output: 256
    pad: 1
    kernel_size: 3
    group: 2
  }
}
layer {
  name: "relu5"
  type: "ReLU"
  bottom: "conv5"
  top: "conv5"
}
layer {
  name: "pool5"
  type: "Pooling"
  bottom: "conv5"
  top: "pool5"
  pooling_param {
    pool: MAX
    kernel_size: 3
    stride: 2
  }
}
layer {
  name: "fc6-new"
  type: "InnerProduct"
  bottom: "pool5"
  top: "fc6-new"
  param {
    lr_mult: 1
    decay_mult: 1
  }
  param {
    lr_mult: 1
    decay_mult: 0
  }
  inner_product_param {
    num_output: 4096
    weight_filler {
      type: "gaussian"
      std: 0.01
    }
  }
}
layer {
  name: "relu6"
  type: "ReLU"
  bottom: "fc6-new"
  top: "fc6-new"
}
layer {
  name: "drop6"
  type: "Dropout"
  bottom: "fc6-new"
  top: "fc6-new"
  dropout_param {
    dropout_ratio: 0.5
  }
}
layer {
  name: "fc7-new"
  type: "InnerProduct"
  bottom: "fc6-new"
  top: "fc7-new"
  param {
    lr_mult: 1
    decay_mult: 1
  }
  param {
    lr_mult: 1
    decay_mult: 0
  }
  inner_product_param {
    num_output: 4096
    weight_filler {
      type: "gaussian"
      std: 0.01
    }
    bias_filler {
      type: "constant"
      value: 0
    }
  }
}
layer {
  name: "relu7"
  type: "ReLU"
  bottom: "fc7-new"
  top: "fc7-new"
}
layer {
  name: "drop7"
  type: "Dropout"
  bottom: "fc7-new"
  top: "fc7-new"
  dropout_param {
    dropout_ratio: 0.5
  }
}
layer {
  name: "fc8-new"
  type: "InnerProduct"
  bottom: "fc7-new"
  top: "fc8-new"
  param {
    lr_mult: 1
    decay_mult: 1
  }
  param {
    lr_mult: 1
    decay_mult: 0
  }
  inner_product_param {
    num_output: 8
    weight_filler {
      type: "gaussian"
      std: 0.01
    }
    bias_filler {
      type: "constant"
      value: 0
    }
  }
}
layer {
  name: "accuracy"
  type: "Accuracy"
  bottom: "fc8-new"
  bottom: "label"
  top: "accuracy"
}
layer {
  name: "loss"
  type: "SoftmaxWithLoss"
  bottom: "fc8-new"
  bottom: "label"
  top: "loss"
}
I1107 09:16:19.288640  8398 layer_factory.hpp:77] Creating layer data
I1107 09:16:19.288839  8398 db_lmdb.cpp:35] Opened lmdb /media/cad/3fafa74e-c460-4512-8fb2-4a08ea3c1ef7/classify/img_train_lmdb
I1107 09:16:25.251435  8398 net.cpp:84] Creating Layer data
I1107 09:16:25.251508  8398 net.cpp:380] data -> data
I1107 09:16:25.251571  8398 net.cpp:380] data -> label
I1107 09:16:25.251612  8398 data_transformer.cpp:25] Loading mean file from: /home/cad/disk/linux/RenderForCNN-master/train/imagenet_mean.binaryproto
I1107 09:16:25.340553  8398 data_layer.cpp:45] output data size: 192,3,256,256
I1107 09:16:25.666247  8398 net.cpp:122] Setting up data
I1107 09:16:25.666287  8398 net.cpp:129] Top shape: 192 3 256 256 (37748736)
I1107 09:16:25.666294  8398 net.cpp:129] Top shape: 192 (192)
I1107 09:16:25.666297  8398 net.cpp:137] Memory required for data: 150995712
I1107 09:16:25.666307  8398 layer_factory.hpp:77] Creating layer label_data_1_split
I1107 09:16:25.666321  8398 net.cpp:84] Creating Layer label_data_1_split
I1107 09:16:25.666327  8398 net.cpp:406] label_data_1_split <- label
I1107 09:16:25.666340  8398 net.cpp:380] label_data_1_split -> label_data_1_split_0
I1107 09:16:25.666350  8398 net.cpp:380] label_data_1_split -> label_data_1_split_1
I1107 09:16:25.666445  8398 net.cpp:122] Setting up label_data_1_split
I1107 09:16:25.666455  8398 net.cpp:129] Top shape: 192 (192)
I1107 09:16:25.666460  8398 net.cpp:129] Top shape: 192 (192)
I1107 09:16:25.666461  8398 net.cpp:137] Memory required for data: 150997248
I1107 09:16:25.666465  8398 layer_factory.hpp:77] Creating layer conv1
I1107 09:16:25.666479  8398 net.cpp:84] Creating Layer conv1
I1107 09:16:25.666483  8398 net.cpp:406] conv1 <- data
I1107 09:16:25.666491  8398 net.cpp:380] conv1 -> conv1
I1107 09:16:31.266599  8398 net.cpp:122] Setting up conv1
I1107 09:16:31.266670  8398 net.cpp:129] Top shape: 192 96 62 62 (70852608)
I1107 09:16:31.266683  8398 net.cpp:137] Memory required for data: 434407680
I1107 09:16:31.266759  8398 layer_factory.hpp:77] Creating layer relu1
I1107 09:16:31.266785  8398 net.cpp:84] Creating Layer relu1
I1107 09:16:31.266804  8398 net.cpp:406] relu1 <- conv1
I1107 09:16:31.266819  8398 net.cpp:367] relu1 -> conv1 (in-place)
I1107 09:16:31.268095  8398 net.cpp:122] Setting up relu1
I1107 09:16:31.268128  8398 net.cpp:129] Top shape: 192 96 62 62 (70852608)
I1107 09:16:31.268138  8398 net.cpp:137] Memory required for data: 717818112
I1107 09:16:31.268147  8398 layer_factory.hpp:77] Creating layer pool1
I1107 09:16:31.268175  8398 net.cpp:84] Creating Layer pool1
I1107 09:16:31.268187  8398 net.cpp:406] pool1 <- conv1
I1107 09:16:31.268200  8398 net.cpp:380] pool1 -> pool1
I1107 09:16:31.268319  8398 net.cpp:122] Setting up pool1
I1107 09:16:31.268338  8398 net.cpp:129] Top shape: 192 96 31 31 (17713152)
I1107 09:16:31.268358  8398 net.cpp:137] Memory required for data: 788670720
I1107 09:16:31.268384  8398 layer_factory.hpp:77] Creating layer norm1
I1107 09:16:31.268406  8398 net.cpp:84] Creating Layer norm1
I1107 09:16:31.268416  8398 net.cpp:406] norm1 <- pool1
I1107 09:16:31.268429  8398 net.cpp:380] norm1 -> norm1
I1107 09:16:31.269423  8398 net.cpp:122] Setting up norm1
I1107 09:16:31.269453  8398 net.cpp:129] Top shape: 192 96 31 31 (17713152)
I1107 09:16:31.269461  8398 net.cpp:137] Memory required for data: 859523328
I1107 09:16:31.269470  8398 layer_factory.hpp:77] Creating layer conv2
I1107 09:16:31.269489  8398 net.cpp:84] Creating Layer conv2
I1107 09:16:31.269498  8398 net.cpp:406] conv2 <- norm1
I1107 09:16:31.269513  8398 net.cpp:380] conv2 -> conv2
I1107 09:16:31.286837  8398 net.cpp:122] Setting up conv2
I1107 09:16:31.286875  8398 net.cpp:129] Top shape: 192 256 31 31 (47235072)
I1107 09:16:31.286883  8398 net.cpp:137] Memory required for data: 1048463616
I1107 09:16:31.286905  8398 layer_factory.hpp:77] Creating layer relu2
I1107 09:16:31.286923  8398 net.cpp:84] Creating Layer relu2
I1107 09:16:31.286932  8398 net.cpp:406] relu2 <- conv2
I1107 09:16:31.286945  8398 net.cpp:367] relu2 -> conv2 (in-place)
I1107 09:16:31.288136  8398 net.cpp:122] Setting up relu2
I1107 09:16:31.288168  8398 net.cpp:129] Top shape: 192 256 31 31 (47235072)
I1107 09:16:31.288177  8398 net.cpp:137] Memory required for data: 1237403904
I1107 09:16:31.288185  8398 layer_factory.hpp:77] Creating layer pool2
I1107 09:16:31.288205  8398 net.cpp:84] Creating Layer pool2
I1107 09:16:31.288214  8398 net.cpp:406] pool2 <- conv2
I1107 09:16:31.288228  8398 net.cpp:380] pool2 -> pool2
I1107 09:16:31.288331  8398 net.cpp:122] Setting up pool2
I1107 09:16:31.288347  8398 net.cpp:129] Top shape: 192 256 15 15 (11059200)
I1107 09:16:31.288355  8398 net.cpp:137] Memory required for data: 1281640704
I1107 09:16:31.288362  8398 layer_factory.hpp:77] Creating layer norm2
I1107 09:16:31.288378  8398 net.cpp:84] Creating Layer norm2
I1107 09:16:31.288385  8398 net.cpp:406] norm2 <- pool2
I1107 09:16:31.288396  8398 net.cpp:380] norm2 -> norm2
I1107 09:16:31.289328  8398 net.cpp:122] Setting up norm2
I1107 09:16:31.289356  8398 net.cpp:129] Top shape: 192 256 15 15 (11059200)
I1107 09:16:31.289364  8398 net.cpp:137] Memory required for data: 1325877504
I1107 09:16:31.289371  8398 layer_factory.hpp:77] Creating layer conv3
I1107 09:16:31.289387  8398 net.cpp:84] Creating Layer conv3
I1107 09:16:31.289396  8398 net.cpp:406] conv3 <- norm2
I1107 09:16:31.289409  8398 net.cpp:380] conv3 -> conv3
I1107 09:16:31.297266  8398 net.cpp:122] Setting up conv3
I1107 09:16:31.297319  8398 net.cpp:129] Top shape: 192 384 15 15 (16588800)
I1107 09:16:31.297329  8398 net.cpp:137] Memory required for data: 1392232704
I1107 09:16:31.297348  8398 layer_factory.hpp:77] Creating layer relu3
I1107 09:16:31.297363  8398 net.cpp:84] Creating Layer relu3
I1107 09:16:31.297369  8398 net.cpp:406] relu3 <- conv3
I1107 09:16:31.297384  8398 net.cpp:367] relu3 -> conv3 (in-place)
I1107 09:16:31.298483  8398 net.cpp:122] Setting up relu3
I1107 09:16:31.298513  8398 net.cpp:129] Top shape: 192 384 15 15 (16588800)
I1107 09:16:31.298521  8398 net.cpp:137] Memory required for data: 1458587904
I1107 09:16:31.298528  8398 layer_factory.hpp:77] Creating layer conv4
I1107 09:16:31.298547  8398 net.cpp:84] Creating Layer conv4
I1107 09:16:31.298555  8398 net.cpp:406] conv4 <- conv3
I1107 09:16:31.298568  8398 net.cpp:380] conv4 -> conv4
I1107 09:16:31.307674  8398 net.cpp:122] Setting up conv4
I1107 09:16:31.307715  8398 net.cpp:129] Top shape: 192 384 15 15 (16588800)
I1107 09:16:31.307724  8398 net.cpp:137] Memory required for data: 1524943104
I1107 09:16:31.307739  8398 layer_factory.hpp:77] Creating layer relu4
I1107 09:16:31.307756  8398 net.cpp:84] Creating Layer relu4
I1107 09:16:31.307765  8398 net.cpp:406] relu4 <- conv4
I1107 09:16:31.307777  8398 net.cpp:367] relu4 -> conv4 (in-place)
I1107 09:16:31.308889  8398 net.cpp:122] Setting up relu4
I1107 09:16:31.308929  8398 net.cpp:129] Top shape: 192 384 15 15 (16588800)
I1107 09:16:31.308949  8398 net.cpp:137] Memory required for data: 1591298304
I1107 09:16:31.308959  8398 layer_factory.hpp:77] Creating layer conv5
I1107 09:16:31.308977  8398 net.cpp:84] Creating Layer conv5
I1107 09:16:31.308986  8398 net.cpp:406] conv5 <- conv4
I1107 09:16:31.309001  8398 net.cpp:380] conv5 -> conv5
I1107 09:16:31.317719  8398 net.cpp:122] Setting up conv5
I1107 09:16:31.317757  8398 net.cpp:129] Top shape: 192 256 15 15 (11059200)
I1107 09:16:31.317769  8398 net.cpp:137] Memory required for data: 1635535104
I1107 09:16:31.317788  8398 layer_factory.hpp:77] Creating layer relu5
I1107 09:16:31.317801  8398 net.cpp:84] Creating Layer relu5
I1107 09:16:31.317809  8398 net.cpp:406] relu5 <- conv5
I1107 09:16:31.317821  8398 net.cpp:367] relu5 -> conv5 (in-place)
I1107 09:16:31.318650  8398 net.cpp:122] Setting up relu5
I1107 09:16:31.318676  8398 net.cpp:129] Top shape: 192 256 15 15 (11059200)
I1107 09:16:31.318684  8398 net.cpp:137] Memory required for data: 1679771904
I1107 09:16:31.318691  8398 layer_factory.hpp:77] Creating layer pool5
I1107 09:16:31.318729  8398 net.cpp:84] Creating Layer pool5
I1107 09:16:31.318739  8398 net.cpp:406] pool5 <- conv5
I1107 09:16:31.318752  8398 net.cpp:380] pool5 -> pool5
I1107 09:16:31.318855  8398 net.cpp:122] Setting up pool5
I1107 09:16:31.318871  8398 net.cpp:129] Top shape: 192 256 7 7 (2408448)
I1107 09:16:31.318877  8398 net.cpp:137] Memory required for data: 1689405696
I1107 09:16:31.318883  8398 layer_factory.hpp:77] Creating layer fc6-new
I1107 09:16:31.318902  8398 net.cpp:84] Creating Layer fc6-new
I1107 09:16:31.318910  8398 net.cpp:406] fc6-new <- pool5
I1107 09:16:31.318922  8398 net.cpp:380] fc6-new -> fc6-new
I1107 09:16:31.860153  8398 net.cpp:122] Setting up fc6-new
I1107 09:16:31.860190  8398 net.cpp:129] Top shape: 192 4096 (786432)
I1107 09:16:31.860195  8398 net.cpp:137] Memory required for data: 1692551424
I1107 09:16:31.860205  8398 layer_factory.hpp:77] Creating layer relu6
I1107 09:16:31.860214  8398 net.cpp:84] Creating Layer relu6
I1107 09:16:31.860219  8398 net.cpp:406] relu6 <- fc6-new
I1107 09:16:31.860227  8398 net.cpp:367] relu6 -> fc6-new (in-place)
I1107 09:16:31.860929  8398 net.cpp:122] Setting up relu6
I1107 09:16:31.860944  8398 net.cpp:129] Top shape: 192 4096 (786432)
I1107 09:16:31.860947  8398 net.cpp:137] Memory required for data: 1695697152
I1107 09:16:31.860951  8398 layer_factory.hpp:77] Creating layer drop6
I1107 09:16:31.860957  8398 net.cpp:84] Creating Layer drop6
I1107 09:16:31.860961  8398 net.cpp:406] drop6 <- fc6-new
I1107 09:16:31.860968  8398 net.cpp:367] drop6 -> fc6-new (in-place)
I1107 09:16:31.861004  8398 net.cpp:122] Setting up drop6
I1107 09:16:31.861013  8398 net.cpp:129] Top shape: 192 4096 (786432)
I1107 09:16:31.861017  8398 net.cpp:137] Memory required for data: 1698842880
I1107 09:16:31.861021  8398 layer_factory.hpp:77] Creating layer fc7-new
I1107 09:16:31.861027  8398 net.cpp:84] Creating Layer fc7-new
I1107 09:16:31.861032  8398 net.cpp:406] fc7-new <- fc6-new
I1107 09:16:31.861038  8398 net.cpp:380] fc7-new -> fc7-new
I1107 09:16:32.020519  8398 net.cpp:122] Setting up fc7-new
I1107 09:16:32.020555  8398 net.cpp:129] Top shape: 192 4096 (786432)
I1107 09:16:32.020558  8398 net.cpp:137] Memory required for data: 1701988608
I1107 09:16:32.020568  8398 layer_factory.hpp:77] Creating layer relu7
I1107 09:16:32.020577  8398 net.cpp:84] Creating Layer relu7
I1107 09:16:32.020582  8398 net.cpp:406] relu7 <- fc7-new
I1107 09:16:32.020592  8398 net.cpp:367] relu7 -> fc7-new (in-place)
I1107 09:16:32.021064  8398 net.cpp:122] Setting up relu7
I1107 09:16:32.021076  8398 net.cpp:129] Top shape: 192 4096 (786432)
I1107 09:16:32.021080  8398 net.cpp:137] Memory required for data: 1705134336
I1107 09:16:32.021083  8398 layer_factory.hpp:77] Creating layer drop7
I1107 09:16:32.021090  8398 net.cpp:84] Creating Layer drop7
I1107 09:16:32.021093  8398 net.cpp:406] drop7 <- fc7-new
I1107 09:16:32.021100  8398 net.cpp:367] drop7 -> fc7-new (in-place)
I1107 09:16:32.021137  8398 net.cpp:122] Setting up drop7
I1107 09:16:32.021152  8398 net.cpp:129] Top shape: 192 4096 (786432)
I1107 09:16:32.021155  8398 net.cpp:137] Memory required for data: 1708280064
I1107 09:16:32.021158  8398 layer_factory.hpp:77] Creating layer fc8-new
I1107 09:16:32.021167  8398 net.cpp:84] Creating Layer fc8-new
I1107 09:16:32.021172  8398 net.cpp:406] fc8-new <- fc7-new
I1107 09:16:32.021178  8398 net.cpp:380] fc8-new -> fc8-new
I1107 09:16:32.021580  8398 net.cpp:122] Setting up fc8-new
I1107 09:16:32.021590  8398 net.cpp:129] Top shape: 192 8 (1536)
I1107 09:16:32.021594  8398 net.cpp:137] Memory required for data: 1708286208
I1107 09:16:32.021600  8398 layer_factory.hpp:77] Creating layer fc8-new_fc8-new_0_split
I1107 09:16:32.021605  8398 net.cpp:84] Creating Layer fc8-new_fc8-new_0_split
I1107 09:16:32.021608  8398 net.cpp:406] fc8-new_fc8-new_0_split <- fc8-new
I1107 09:16:32.021616  8398 net.cpp:380] fc8-new_fc8-new_0_split -> fc8-new_fc8-new_0_split_0
I1107 09:16:32.021623  8398 net.cpp:380] fc8-new_fc8-new_0_split -> fc8-new_fc8-new_0_split_1
I1107 09:16:32.021662  8398 net.cpp:122] Setting up fc8-new_fc8-new_0_split
I1107 09:16:32.021669  8398 net.cpp:129] Top shape: 192 8 (1536)
I1107 09:16:32.021673  8398 net.cpp:129] Top shape: 192 8 (1536)
I1107 09:16:32.021675  8398 net.cpp:137] Memory required for data: 1708298496
I1107 09:16:32.021678  8398 layer_factory.hpp:77] Creating layer accuracy
I1107 09:16:32.021684  8398 net.cpp:84] Creating Layer accuracy
I1107 09:16:32.021687  8398 net.cpp:406] accuracy <- fc8-new_fc8-new_0_split_0
I1107 09:16:32.021692  8398 net.cpp:406] accuracy <- label_data_1_split_0
I1107 09:16:32.021697  8398 net.cpp:380] accuracy -> accuracy
…
I1107 09:16:32.022897  8398 net.cpp:294] The NetState phase (1) differed from the phase (0) specified by a rule in layer data
I1107 09:16:32.023025  8398 net.cpp:51] Initializing net from parameters: 
name: "RenderForCNN"
state {
  phase: TEST
}
layer {
  name: "data"
  type: "Data"
  top: "data"
  top: "label"
  include {
    phase: TEST
  }
  transform_param {
    mirror: false
    mean_file: "/home/cad/disk/linux/RenderForCNN-master/train/imagenet_mean.binaryproto"
  }
  data_param {
    source: "/media/cad/3fafa74e-c460-4512-8fb2-4a08ea3c1ef7/classify/img_test_lmdb"
    batch_size: 1
    backend: LMDB
  }
}
layer {
  name: "conv1"
  type: "Convolution"
  bottom: "data"
  top: "conv1"
  param {
    lr_mult: 0
    decay_mult: 0
  }
  param {
    lr_mult: 0
    decay_mult: 0
  }
  convolution_param {
    num_output: 96
    kernel_size: 11
    stride: 4
  }
}
layer {
  name: "relu1"
  type: "ReLU"
  bottom: "conv1"
  top: "conv1"
}
layer {
  name: "pool1"
  type: "Pooling"
  bottom: "conv1"
  top: "pool1"
  pooling_param {
    pool: MAX
    kernel_size: 3
    stride: 2
  }
}
layer {
  name: "norm1"
  type: "LRN"
  bottom: "pool1"
  top: "norm1"
  lrn_param {
    local_size: 5
    alpha: 0.0001
    beta: 0.75
  }
}
layer {
  name: "conv2"
  type: "Convolution"
  bottom: "norm1"
  top: "conv2"
  param {
    lr_mult: 0
    decay_mult: 0
  }
  param {
    lr_mult: 0
    decay_mult: 0
  }
  convolution_param {
    num_output: 256
    pad: 2
    kernel_size: 5
    group: 2
  }
}
layer {
  name: "relu2"
  type: "ReLU"
  bottom: "conv2"
  top: "conv2"
}
layer {
  name: "pool2"
  type: "Pooling"
  bottom: "conv2"
  top: "pool2"
  pooling_param {
    pool: MAX
    kernel_size: 3
    stride: 2
  }
}
layer {
  name: "norm2"
  type: "LRN"
  bottom: "pool2"
  top: "norm2"
  lrn_param {
    local_size: 5
    alpha: 0.0001
    beta: 0.75
  }
}
layer {
  name: "conv3"
  type: "Convolution"
  bottom: "norm2"
  top: "conv3"
  param {
    lr_mult: 1
    decay_mult: 1
  }
  param {
    lr_mult: 1
    decay_mult: 0
  }
  convolution_param {
    num_output: 384
    pad: 1
    kernel_size: 3
  }
}
layer {
  name: "relu3"
  type: "ReLU"
  bottom: "conv3"
  top: "conv3"
}
layer {
  name: "conv4"
  type: "Convolution"
  bottom: "conv3"
  top: "conv4"
  param {
    lr_mult: 1
    decay_mult: 1
  }
  param {
    lr_mult: 1
    decay_mult: 0
  }
  convolution_param {
    num_output: 384
    pad: 1
    kernel_size: 3
    group: 2
  }
}
layer {
  name: "relu4"
  type: "ReLU"
  bottom: "conv4"
  top: "conv4"
}
layer {
  name: "conv5"
  type: "Convolution"
  bottom: "conv4"
  top: "conv5"
  param {
    lr_mult: 1
    decay_mult: 1
  }
  param {
    lr_mult: 1
    decay_mult: 0
  }
  convolution_param {
    num_output: 256
    pad: 1
    kernel_size: 3
    group: 2
  }
}
layer {
  name: "relu5"
  type: "ReLU"
  bottom: "conv5"
  top: "conv5"
}
layer {
  name: "pool5"
  type: "Pooling"
  bottom: "conv5"
  top: "pool5"
  pooling_param {
    pool: MAX
    kernel_size: 3
    stride: 2
  }
}
layer {
  name: "fc6-new"
  type: "InnerProduct"
  bottom: "pool5"
  top: "fc6-new"
  param {
    lr_mult: 1
    decay_mult: 1
  }
  param {
    lr_mult: 1
    decay_mult: 0
  }
  inner_product_param {
    num_output: 4096
    weight_filler {
      type: "gaussian"
      std: 0.01
    }
  }
}
layer {
  name: "relu6"
  type: "ReLU"
  bottom: "fc6-new"
  top: "fc6-new"
}
layer {
  name: "drop6"
  type: "Dropout"
  bottom: "fc6-new"
  top: "fc6-new"
  dropout_param {
    dropout_ratio: 0.5
  }
}
layer {
  name: "fc7-new"
  type: "InnerProduct"
  bottom: "fc6-new"
  top: "fc7-new"
  param {
    lr_mult: 1
    decay_mult: 1
  }
  param {
    lr_mult: 1
    decay_mult: 0
  }
  inner_product_param {
    num_output: 4096
    weight_filler {
      type: "gaussian"
      std: 0.01
    }
    bias_filler {
      type: "constant"
      value: 0
    }
  }
}
layer {
  name: "relu7"
  type: "ReLU"
  bottom: "fc7-new"
  top: "fc7-new"
}
layer {
  name: "drop7"
  type: "Dropout"
  bottom: "fc7-new"
  top: "fc7-new"
  dropout_param {
    dropout_ratio: 0.5
  }
}
layer {
  name: "fc8-new"
  type: "InnerProduct"
  bottom: "fc7-new"
  top: "fc8-new"
  param {
    lr_mult: 1
    decay_mult: 1
  }
  param {
    lr_mult: 1
    decay_mult: 0
  }
  inner_product_param {
    num_output: 8
    weight_filler {
      type: "gaussian"
      std: 0.01
    }
    bias_filler {
      type: "constant"
      value: 0
    }
  }
}
layer {
  name: "accuracy"
  type: "Accuracy"
  bottom: "fc8-new"
  bottom: "label"
  top: "accuracy"
}
layer {
  name: "loss"
  type: "SoftmaxWithLoss"
  bottom: "fc8-new"
  bottom: "label"
  top: "loss"
}
I1107 09:16:32.023110  8398 layer_factory.hpp:77] Creating layer data
I1107 09:16:32.371431  8398 db_lmdb.cpp:35] Opened lmdb /media/cad/3fafa74e-c460-4512-8fb2-4a08ea3c1ef7/classify/img_test_lmdb
I1107 09:16:32.553184  8398 net.cpp:84] Creating Layer data
I1107 09:16:32.553234  8398 net.cpp:380] data -> data
I1107 09:16:32.553262  8398 net.cpp:380] data -> label
I1107 09:16:32.553288  8398 data_transformer.cpp:25] Loading mean file from: /home/cad/disk/linux/RenderForCNN-master/train/imagenet_mean.binaryproto
I1107 09:16:32.567848  8398 data_layer.cpp:45] output data size: 1,3,256,256
I1107 09:16:32.573707  8398 net.cpp:122] Setting up data
I1107 09:16:32.573750  8398 net.cpp:129] Top shape: 1 3 256 256 (196608)
I1107 09:16:32.573762  8398 net.cpp:129] Top shape: 1 (1)
I1107 09:16:32.573770  8398 net.cpp:137] Memory required for data: 786436
I1107 09:16:32.573781  8398 layer_factory.hpp:77] Creating layer label_data_1_split
I1107 09:16:32.573801  8398 net.cpp:84] Creating Layer label_data_1_split
I1107 09:16:32.573812  8398 net.cpp:406] label_data_1_split <- label
I1107 09:16:32.573825  8398 net.cpp:380] label_data_1_split -> label_data_1_split_0
I1107 09:16:32.573844  8398 net.cpp:380] label_data_1_split -> label_data_1_split_1
I1107 09:16:32.574115  8398 net.cpp:122] Setting up label_data_1_split
I1107 09:16:32.574136  8398 net.cpp:129] Top shape: 1 (1)
I1107 09:16:32.574146  8398 net.cpp:129] Top shape: 1 (1)
I1107 09:16:32.574152  8398 net.cpp:137] Memory required for data: 786444
I1107 09:16:32.574162  8398 layer_factory.hpp:77] Creating layer conv1
I1107 09:16:32.574183  8398 net.cpp:84] Creating Layer conv1
I1107 09:16:32.574193  8398 net.cpp:406] conv1 <- data
I1107 09:16:32.574204  8398 net.cpp:380] conv1 -> conv1
I1107 09:16:32.578596  8398 net.cpp:122] Setting up conv1
I1107 09:16:32.578634  8398 net.cpp:129] Top shape: 1 96 62 62 (369024)
I1107 09:16:32.578644  8398 net.cpp:137] Memory required for data: 2262540
I1107 09:16:32.578666  8398 layer_factory.hpp:77] Creating layer relu1
I1107 09:16:32.578681  8398 net.cpp:84] Creating Layer relu1
I1107 09:16:32.578689  8398 net.cpp:406] relu1 <- conv1
I1107 09:16:32.578735  8398 net.cpp:367] relu1 -> conv1 (in-place)
I1107 09:16:32.579816  8398 net.cpp:122] Setting up relu1
I1107 09:16:32.579849  8398 net.cpp:129] Top shape: 1 96 62 62 (369024)
I1107 09:16:32.579859  8398 net.cpp:137] Memory required for data: 3738636
I1107 09:16:32.579866  8398 layer_factory.hpp:77] Creating layer pool1
I1107 09:16:32.579895  8398 net.cpp:84] Creating Layer pool1
I1107 09:16:32.579921  8398 net.cpp:406] pool1 <- conv1
I1107 09:16:32.579933  8398 net.cpp:380] pool1 -> pool1
I1107 09:16:32.580041  8398 net.cpp:122] Setting up pool1
I1107 09:16:32.580057  8398 net.cpp:129] Top shape: 1 96 31 31 (92256)
I1107 09:16:32.580065  8398 net.cpp:137] Memory required for data: 4107660
I1107 09:16:32.580071  8398 layer_factory.hpp:77] Creating layer norm1
I1107 09:16:32.580085  8398 net.cpp:84] Creating Layer norm1
I1107 09:16:32.580093  8398 net.cpp:406] norm1 <- pool1
I1107 09:16:32.580104  8398 net.cpp:380] norm1 -> norm1
I1107 09:16:32.581068  8398 net.cpp:122] Setting up norm1
I1107 09:16:32.581097  8398 net.cpp:129] Top shape: 1 96 31 31 (92256)
I1107 09:16:32.581106  8398 net.cpp:137] Memory required for data: 4476684
I1107 09:16:32.581115  8398 layer_factory.hpp:77] Creating layer conv2
I1107 09:16:32.581130  8398 net.cpp:84] Creating Layer conv2
I1107 09:16:32.581140  8398 net.cpp:406] conv2 <- norm1
I1107 09:16:32.581154  8398 net.cpp:380] conv2 -> conv2
I1107 09:16:32.589581  8398 net.cpp:122] Setting up conv2
I1107 09:16:32.589622  8398 net.cpp:129] Top shape: 1 256 31 31 (246016)
I1107 09:16:32.589632  8398 net.cpp:137] Memory required for data: 5460748
I1107 09:16:32.589651  8398 layer_factory.hpp:77] Creating layer relu2
I1107 09:16:32.589664  8398 net.cpp:84] Creating Layer relu2
I1107 09:16:32.589673  8398 net.cpp:406] relu2 <- conv2
I1107 09:16:32.589685  8398 net.cpp:367] relu2 -> conv2 (in-place)
I1107 09:16:32.590911  8398 net.cpp:122] Setting up relu2
I1107 09:16:32.590945  8398 net.cpp:129] Top shape: 1 256 31 31 (246016)
I1107 09:16:32.590955  8398 net.cpp:137] Memory required for data: 6444812
I1107 09:16:32.590961  8398 layer_factory.hpp:77] Creating layer pool2
I1107 09:16:32.590977  8398 net.cpp:84] Creating Layer pool2
I1107 09:16:32.590984  8398 net.cpp:406] pool2 <- conv2
I1107 09:16:32.590998  8398 net.cpp:380] pool2 -> pool2
I1107 09:16:32.591109  8398 net.cpp:122] Setting up pool2
I1107 09:16:32.591126  8398 net.cpp:129] Top shape: 1 256 15 15 (57600)
I1107 09:16:32.591133  8398 net.cpp:137] Memory required for data: 6675212
I1107 09:16:32.591140  8398 layer_factory.hpp:77] Creating layer norm2
I1107 09:16:32.591154  8398 net.cpp:84] Creating Layer norm2
I1107 09:16:32.591163  8398 net.cpp:406] norm2 <- pool2
I1107 09:16:32.591176  8398 net.cpp:380] norm2 -> norm2
I1107 09:16:32.592092  8398 net.cpp:122] Setting up norm2
I1107 09:16:32.592118  8398 net.cpp:129] Top shape: 1 256 15 15 (57600)
I1107 09:16:32.592124  8398 net.cpp:137] Memory required for data: 6905612
I1107 09:16:32.592131  8398 layer_factory.hpp:77] Creating layer conv3
I1107 09:16:32.592149  8398 net.cpp:84] Creating Layer conv3
I1107 09:16:32.592156  8398 net.cpp:406] conv3 <- norm2
I1107 09:16:32.592172  8398 net.cpp:380] conv3 -> conv3
I1107 09:16:32.599519  8398 net.cpp:122] Setting up conv3
I1107 09:16:32.599565  8398 net.cpp:129] Top shape: 1 384 15 15 (86400)
I1107 09:16:32.599575  8398 net.cpp:137] Memory required for data: 7251212
I1107 09:16:32.599596  8398 layer_factory.hpp:77] Creating layer relu3
I1107 09:16:32.599611  8398 net.cpp:84] Creating Layer relu3
I1107 09:16:32.599620  8398 net.cpp:406] relu3 <- conv3
I1107 09:16:32.599635  8398 net.cpp:367] relu3 -> conv3 (in-place)
I1107 09:16:32.600760  8398 net.cpp:122] Setting up relu3
I1107 09:16:32.600791  8398 net.cpp:129] Top shape: 1 384 15 15 (86400)
I1107 09:16:32.600798  8398 net.cpp:137] Memory required for data: 7596812
I1107 09:16:32.600806  8398 layer_factory.hpp:77] Creating layer conv4
I1107 09:16:32.600824  8398 net.cpp:84] Creating Layer conv4
I1107 09:16:32.600833  8398 net.cpp:406] conv4 <- conv3
I1107 09:16:32.600847  8398 net.cpp:380] conv4 -> conv4
I1107 09:16:32.609962  8398 net.cpp:122] Setting up conv4
I1107 09:16:32.610003  8398 net.cpp:129] Top shape: 1 384 15 15 (86400)
I1107 09:16:32.610013  8398 net.cpp:137] Memory required for data: 7942412
I1107 09:16:32.610026  8398 layer_factory.hpp:77] Creating layer relu4
I1107 09:16:32.610039  8398 net.cpp:84] Creating Layer relu4
I1107 09:16:32.610059  8398 net.cpp:406] relu4 <- conv4
I1107 09:16:32.610081  8398 net.cpp:367] relu4 -> conv4 (in-place)
I1107 09:16:32.611202  8398 net.cpp:122] Setting up relu4
I1107 09:16:32.611235  8398 net.cpp:129] Top shape: 1 384 15 15 (86400)
I1107 09:16:32.611243  8398 net.cpp:137] Memory required for data: 8288012
I1107 09:16:32.611251  8398 layer_factory.hpp:77] Creating layer conv5
I1107 09:16:32.611266  8398 net.cpp:84] Creating Layer conv5
I1107 09:16:32.611274  8398 net.cpp:406] conv5 <- conv4
I1107 09:16:32.611289  8398 net.cpp:380] conv5 -> conv5
I1107 09:16:32.619654  8398 net.cpp:122] Setting up conv5
I1107 09:16:32.619688  8398 net.cpp:129] Top shape: 1 256 15 15 (57600)
I1107 09:16:32.619698  8398 net.cpp:137] Memory required for data: 8518412
I1107 09:16:32.619715  8398 layer_factory.hpp:77] Creating layer relu5
I1107 09:16:32.619727  8398 net.cpp:84] Creating Layer relu5
I1107 09:16:32.619735  8398 net.cpp:406] relu5 <- conv5
I1107 09:16:32.619747  8398 net.cpp:367] relu5 -> conv5 (in-place)
I1107 09:16:32.620523  8398 net.cpp:122] Setting up relu5
I1107 09:16:32.620546  8398 net.cpp:129] Top shape: 1 256 15 15 (57600)
I1107 09:16:32.620553  8398 net.cpp:137] Memory required for data: 8748812
I1107 09:16:32.620560  8398 layer_factory.hpp:77] Creating layer pool5
I1107 09:16:32.620579  8398 net.cpp:84] Creating Layer pool5
I1107 09:16:32.620585  8398 net.cpp:406] pool5 <- conv5
I1107 09:16:32.620596  8398 net.cpp:380] pool5 -> pool5
I1107 09:16:32.620698  8398 net.cpp:122] Setting up pool5
I1107 09:16:32.620713  8398 net.cpp:129] Top shape: 1 256 7 7 (12544)
I1107 09:16:32.620719  8398 net.cpp:137] Memory required for data: 8798988
I1107 09:16:32.620725  8398 layer_factory.hpp:77] Creating layer fc6-new
I1107 09:16:32.620741  8398 net.cpp:84] Creating Layer fc6-new
I1107 09:16:32.620749  8398 net.cpp:406] fc6-new <- pool5
I1107 09:16:32.620759  8398 net.cpp:380] fc6-new -> fc6-new
I1107 09:16:33.153780  8398 net.cpp:122] Setting up fc6-new
I1107 09:16:33.153816  8398 net.cpp:129] Top shape: 1 4096 (4096)
I1107 09:16:33.153820  8398 net.cpp:137] Memory required for data: 8815372
I1107 09:16:33.153831  8398 layer_factory.hpp:77] Creating layer relu6
I1107 09:16:33.153841  8398 net.cpp:84] Creating Layer relu6
I1107 09:16:33.153846  8398 net.cpp:406] relu6 <- fc6-new
I1107 09:16:33.153853  8398 net.cpp:367] relu6 -> fc6-new (in-place)
I1107 09:16:33.154583  8398 net.cpp:122] Setting up relu6
I1107 09:16:33.154599  8398 net.cpp:129] Top shape: 1 4096 (4096)
I1107 09:16:33.154603  8398 net.cpp:137] Memory required for data: 8831756
I1107 09:16:33.154608  8398 layer_factory.hpp:77] Creating layer drop6
I1107 09:16:33.154614  8398 net.cpp:84] Creating Layer drop6
I1107 09:16:33.154618  8398 net.cpp:406] drop6 <- fc6-new
I1107 09:16:33.154624  8398 net.cpp:367] drop6 -> fc6-new (in-place)
I1107 09:16:33.154661  8398 net.cpp:122] Setting up drop6
I1107 09:16:33.154670  8398 net.cpp:129] Top shape: 1 4096 (4096)
I1107 09:16:33.154673  8398 net.cpp:137] Memory required for data: 8848140
I1107 09:16:33.154676  8398 layer_factory.hpp:77] Creating layer fc7-new
I1107 09:16:33.154685  8398 net.cpp:84] Creating Layer fc7-new
I1107 09:16:33.154687  8398 net.cpp:406] fc7-new <- fc6-new
I1107 09:16:33.154693  8398 net.cpp:380] fc7-new -> fc7-new
I1107 09:16:33.314230  8398 net.cpp:122] Setting up fc7-new
I1107 09:16:33.314265  8398 net.cpp:129] Top shape: 1 4096 (4096)
I1107 09:16:33.314270  8398 net.cpp:137] Memory required for data: 8864524
I1107 09:16:33.314285  8398 layer_factory.hpp:77] Creating layer relu7
I1107 09:16:33.314293  8398 net.cpp:84] Creating Layer relu7
I1107 09:16:33.314298  8398 net.cpp:406] relu7 <- fc7-new
I1107 09:16:33.314307  8398 net.cpp:367] relu7 -> fc7-new (in-place)
I1107 09:16:33.314824  8398 net.cpp:122] Setting up relu7
I1107 09:16:33.314837  8398 net.cpp:129] Top shape: 1 4096 (4096)
I1107 09:16:33.314841  8398 net.cpp:137] Memory required for data: 8880908
I1107 09:16:33.314844  8398 layer_factory.hpp:77] Creating layer drop7
I1107 09:16:33.314853  8398 net.cpp:84] Creating Layer drop7
I1107 09:16:33.314862  8398 net.cpp:406] drop7 <- fc7-new
I1107 09:16:33.314875  8398 net.cpp:367] drop7 -> fc7-new (in-place)
I1107 09:16:33.314916  8398 net.cpp:122] Setting up drop7
I1107 09:16:33.314924  8398 net.cpp:129] Top shape: 1 4096 (4096)
I1107 09:16:33.314927  8398 net.cpp:137] Memory required for data: 8897292
I1107 09:16:33.314930  8398 layer_factory.hpp:77] Creating layer fc8-new
I1107 09:16:33.314939  8398 net.cpp:84] Creating Layer fc8-new
I1107 09:16:33.314942  8398 net.cpp:406] fc8-new <- fc7-new
I1107 09:16:33.314949  8398 net.cpp:380] fc8-new -> fc8-new
I1107 09:16:33.315371  8398 net.cpp:122] Setting up fc8-new
I1107 09:16:33.315381  8398 net.cpp:129] Top shape: 1 8 (8)
I1107 09:16:33.315383  8398 net.cpp:137] Memory required for data: 8897324
I1107 09:16:33.315389  8398 layer_factory.hpp:77] Creating layer fc8-new_fc8-new_0_split
I1107 09:16:33.315397  8398 net.cpp:84] Creating Layer fc8-new_fc8-new_0_split
I1107 09:16:33.315402  8398 net.cpp:406] fc8-new_fc8-new_0_split <- fc8-new
I1107 09:16:33.315407  8398 net.cpp:380] fc8-new_fc8-new_0_split -> fc8-new_fc8-new_0_split_0
I1107 09:16:33.315414  8398 net.cpp:380] fc8-new_fc8-new_0_split -> fc8-new_fc8-new_0_split_1
I1107 09:16:33.315456  8398 net.cpp:122] Setting up fc8-new_fc8-new_0_split
I1107 09:16:33.315464  8398 net.cpp:129] Top shape: 1 8 (8)
I1107 09:16:33.315466  8398 net.cpp:129] Top shape: 1 8 (8)
I1107 09:16:33.315469  8398 net.cpp:137] Memory required for data: 8897388
I1107 09:16:33.315472  8398 layer_factory.hpp:77] Creating layer accuracy
I1107 09:16:33.315479  8398 net.cpp:84] Creating Layer accuracy
I1107 09:16:33.315482  8398 net.cpp:406] accuracy <- fc8-new_fc8-new_0_split_0
I1107 09:16:33.315487  8398 net.cpp:406] accuracy <- label_data_1_split_0
I1107 09:16:33.315492  8398 net.cpp:380] accuracy -> accuracy
…
