…
I1102 21:11:36.935596 31188 upgrade_proto.cpp:80] Successfully upgraded batch norm layers using deprecated params.
I1102 21:11:36.935662 31188 net.cpp:294] The NetState phase (0) differed from the phase (1) specified by a rule in layer data
I1102 21:11:36.935840 31188 net.cpp:51] Initializing net from parameters: 
name: "AlexNet"
state {
  phase: TRAIN
  level: 0
  stage: ""
}
layer {
  name: "data"
  type: "Data"
  top: "data"
  top: "label"
  include {
    phase: TRAIN
  }
  transform_param {
    mirror: true
  }
  data_param {
    source: "/media/cad/3fafa74e-c460-4512-8fb2-4a08ea3c1ef7/classify/img_train_lmdb"
    batch_size: 64
    backend: LMDB
  }
}
layer {
  name: "data/bn"
  type: "BatchNorm"
  bottom: "data"
  top: "data/bn"
  param {
    lr_mult: 0
    decay_mult: 0
  }
  param {
    lr_mult: 0
    decay_mult: 0
  }
  param {
    lr_mult: 0
    decay_mult: 0
  }
  batch_norm_param {
    moving_average_fraction: 0.9
  }
}
layer {
  name: "data/scale"
  type: "Scale"
  bottom: "data/bn"
  top: "data/scale"
  param {
    lr_mult: 0
    decay_mult: 0
  }
  param {
    lr_mult: 0
    decay_mult: 0
  }
  scale_param {
    bias_term: true
  }
}
layer {
  name: "conv1"
  type: "Convolution"
  bottom: "data/scale"
  top: "conv1"
  param {
    lr_mult: 0
    decay_mult: 0
  }
  param {
    lr_mult: 0
    decay_mult: 0
  }
  convolution_param {
    num_output: 96
    kernel_size: 11
    stride: 4
  }
}
layer {
  name: "conv1/bn"
  type: "BatchNorm"
  bottom: "conv1"
  top: "conv1/bn"
  param {
    lr_mult: 0
    decay_mult: 0
  }
  param {
    lr_mult: 0
    decay_mult: 0
  }
  param {
    lr_mult: 0
    decay_mult: 0
  }
  batch_norm_param {
    moving_average_fraction: 0.9
  }
}
layer {
  name: "relu1"
  type: "ReLU"
  bottom: "conv1/bn"
  top: "norm1"
}
layer {
  name: "pool1"
  type: "Pooling"
  bottom: "norm1"
  top: "pool1"
  pooling_param {
    pool: MAX
    kernel_size: 3
    stride: 2
  }
}
layer {
  name: "conv2"
  type: "Convolution"
  bottom: "pool1"
  top: "conv2"
  param {
    lr_mult: 0
    decay_mult: 0
  }
  param {
    lr_mult: 0
    decay_mult: 0
  }
  convolution_param {
    num_output: 256
    pad: 2
    kernel_size: 5
    group: 2
  }
}
layer {
  name: "conv2/bn"
  type: "BatchNorm"
  bottom: "conv2"
  top: "conv2/bn"
  param {
    lr_mult: 0
    decay_mult: 0
  }
  param {
    lr_mult: 0
    decay_mult: 0
  }
  param {
    lr_mult: 0
    decay_mult: 0
  }
  batch_norm_param {
    moving_average_fraction: 0.9
  }
}
layer {
  name: "relu2"
  type: "ReLU"
  bottom: "conv2/bn"
  top: "norm2"
}
layer {
  name: "pool2"
  type: "Pooling"
  bottom: "norm2"
  top: "pool2"
  pooling_param {
    pool: MAX
    kernel_size: 3
    stride: 2
  }
}
layer {
  name: "conv3"
  type: "Convolution"
  bottom: "pool2"
  top: "conv3"
  param {
    lr_mult: 0
    decay_mult: 0
  }
  param {
    lr_mult: 0
    decay_mult: 0
  }
  convolution_param {
    num_output: 384
    pad: 1
    kernel_size: 3
  }
}
layer {
  name: "conv3/bn"
  type: "BatchNorm"
  bottom: "conv3"
  top: "conv3/bn"
  param {
    lr_mult: 0
    decay_mult: 0
  }
  param {
    lr_mult: 0
    decay_mult: 0
  }
  param {
    lr_mult: 0
    decay_mult: 0
  }
  batch_norm_param {
    moving_average_fraction: 0.9
  }
}
layer {
  name: "relu3"
  type: "ReLU"
  bottom: "conv3/bn"
  top: "conv3/bn"
}
layer {
  name: "conv4"
  type: "Convolution"
  bottom: "conv3/bn"
  top: "conv4"
  param {
    lr_mult: 1
    decay_mult: 1
  }
  param {
    lr_mult: 2
    decay_mult: 0
  }
  convolution_param {
    num_output: 384
    pad: 1
    kernel_size: 3
    group: 2
  }
}
layer {
  name: "conv4/bn"
  type: "BatchNorm"
  bottom: "conv4"
  top: "conv4/bn"
  param {
    lr_mult: 0
    decay_mult: 0
  }
  param {
    lr_mult: 0
    decay_mult: 0
  }
  param {
    lr_mult: 0
    decay_mult: 0
  }
  batch_norm_param {
    moving_average_fraction: 0.9
  }
}
layer {
  name: "relu4"
  type: "ReLU"
  bottom: "conv4/bn"
  top: "conv4/bn"
}
layer {
  name: "conv5"
  type: "Convolution"
  bottom: "conv4/bn"
  top: "conv5"
  param {
    lr_mult: 1
    decay_mult: 1
  }
  param {
    lr_mult: 2
    decay_mult: 0
  }
  convolution_param {
    num_output: 256
    pad: 1
    kernel_size: 3
    group: 2
  }
}
layer {
  name: "conv5/bn"
  type: "BatchNorm"
  bottom: "conv5"
  top: "conv5/bn"
  param {
    lr_mult: 0
    decay_mult: 0
  }
  param {
    lr_mult: 0
    decay_mult: 0
  }
  param {
    lr_mult: 0
    decay_mult: 0
  }
  batch_norm_param {
    moving_average_fraction: 0.9
  }
}
layer {
  name: "relu5"
  type: "ReLU"
  bottom: "conv5/bn"
  top: "conv5/bn"
}
layer {
  name: "pool5"
  type: "Pooling"
  bottom: "conv5/bn"
  top: "pool5"
  pooling_param {
    pool: MAX
    kernel_size: 3
    stride: 2
  }
}
layer {
  name: "fc6-new"
  type: "InnerProduct"
  bottom: "pool5"
  top: "fc6-new"
  param {
    lr_mult: 1
    decay_mult: 1
  }
  param {
    lr_mult: 2
    decay_mult: 0
  }
  inner_product_param {
    num_output: 4096
    weight_filler {
      type: "msra"
    }
    bias_filler {
      type: "constant"
      value: 0
    }
  }
}
layer {
  name: "fc6/bn-new"
  type: "BatchNorm"
  bottom: "fc6-new"
  top: "fc6/bn-new"
  param {
    lr_mult: 0
    decay_mult: 0
  }
  param {
    lr_mult: 0
    decay_mult: 0
  }
  param {
    lr_mult: 0
    decay_mult: 0
  }
  batch_norm_param {
    moving_average_fraction: 0.9
  }
}
layer {
  name: "relu6"
  type: "ReLU"
  bottom: "fc6/bn-new"
  top: "fc6/bn-new"
}
layer {
  name: "drop6"
  type: "Dropout"
  bottom: "fc6/bn-new"
  top: "fc6/bn-new"
  dropout_param {
    dropout_ratio: 0.55
  }
}
layer {
  name: "fc7-new"
  type: "InnerProduct"
  bottom: "fc6/bn-new"
  top: "fc7-new"
  param {
    lr_mult: 1
    decay_mult: 1
  }
  param {
    lr_mult: 2
    decay_mult: 0
  }
  inner_product_param {
    num_output: 4096
    weight_filler {
      type: "msra"
    }
    bias_filler {
      type: "constant"
      value: 0
    }
  }
}
layer {
  name: "fc7/bn-new"
  type: "BatchNorm"
  bottom: "fc7-new"
  top: "fc7/bn-new"
  param {
    lr_mult: 0
    decay_mult: 0
  }
  param {
    lr_mult: 0
    decay_mult: 0
  }
  param {
    lr_mult: 0
    decay_mult: 0
  }
  batch_norm_param {
    moving_average_fraction: 0.9
  }
}
layer {
  name: "relu7"
  type: "ReLU"
  bottom: "fc7/bn-new"
  top: "fc7/bn-new"
}
layer {
  name: "drop7"
  type: "Dropout"
  bottom: "fc7/bn-new"
  top: "fc7/bn-new"
  dropout_param {
    dropout_ratio: 0.55
  }
}
layer {
  name: "fc8-new"
  type: "InnerProduct"
  bottom: "fc7/bn-new"
  top: "fc8-new"
  param {
    lr_mult: 1
    decay_mult: 1
  }
  param {
    lr_mult: 2
    decay_mult: 0
  }
  inner_product_param {
    num_output: 8
    weight_filler {
      type: "msra"
    }
    bias_filler {
      type: "constant"
      value: 0
    }
  }
}
layer {
  name: "accuracy"
  type: "Accuracy"
  bottom: "fc8-new"
  bottom: "label"
  top: "accuracy"
}
layer {
  name: "loss"
  type: "SoftmaxWithLoss"
  bottom: "fc8-new"
  bottom: "label"
  top: "loss"
}
I1102 21:11:36.935968 31188 layer_factory.hpp:77] Creating layer data
I1102 21:11:36.936080 31188 db_lmdb.cpp:35] Opened lmdb /media/cad/3fafa74e-c460-4512-8fb2-4a08ea3c1ef7/classify/img_train_lmdb
I1102 21:11:36.936110 31188 net.cpp:84] Creating Layer data
I1102 21:11:36.936122 31188 net.cpp:380] data -> data
I1102 21:11:36.936144 31188 net.cpp:380] data -> label
I1102 21:11:36.936924 31188 data_layer.cpp:45] output data size: 64,3,256,256
I1102 21:11:37.026319 31188 net.cpp:122] Setting up data
I1102 21:11:37.026361 31188 net.cpp:129] Top shape: 64 3 256 256 (12582912)
I1102 21:11:37.026367 31188 net.cpp:129] Top shape: 64 (64)
I1102 21:11:37.026371 31188 net.cpp:137] Memory required for data: 50331904
I1102 21:11:37.026381 31188 layer_factory.hpp:77] Creating layer label_data_1_split
I1102 21:11:37.026393 31188 net.cpp:84] Creating Layer label_data_1_split
I1102 21:11:37.026401 31188 net.cpp:406] label_data_1_split <- label
I1102 21:11:37.026412 31188 net.cpp:380] label_data_1_split -> label_data_1_split_0
I1102 21:11:37.026423 31188 net.cpp:380] label_data_1_split -> label_data_1_split_1
I1102 21:11:37.026515 31188 net.cpp:122] Setting up label_data_1_split
I1102 21:11:37.026525 31188 net.cpp:129] Top shape: 64 (64)
I1102 21:11:37.026530 31188 net.cpp:129] Top shape: 64 (64)
I1102 21:11:37.026533 31188 net.cpp:137] Memory required for data: 50332416
I1102 21:11:37.026537 31188 layer_factory.hpp:77] Creating layer data/bn
I1102 21:11:37.026546 31188 net.cpp:84] Creating Layer data/bn
I1102 21:11:37.026549 31188 net.cpp:406] data/bn <- data
I1102 21:11:37.026557 31188 net.cpp:380] data/bn -> data/bn
I1102 21:11:37.027235 31188 net.cpp:122] Setting up data/bn
I1102 21:11:37.027251 31188 net.cpp:129] Top shape: 64 3 256 256 (12582912)
I1102 21:11:37.027254 31188 net.cpp:137] Memory required for data: 100664064
I1102 21:11:37.027276 31188 layer_factory.hpp:77] Creating layer data/scale
I1102 21:11:37.027285 31188 net.cpp:84] Creating Layer data/scale
I1102 21:11:37.027290 31188 net.cpp:406] data/scale <- data/bn
I1102 21:11:37.027297 31188 net.cpp:380] data/scale -> data/scale
I1102 21:11:37.027335 31188 layer_factory.hpp:77] Creating layer data/scale
I1102 21:11:37.031332 31188 net.cpp:122] Setting up data/scale
I1102 21:11:37.031352 31188 net.cpp:129] Top shape: 64 3 256 256 (12582912)
I1102 21:11:37.031358 31188 net.cpp:137] Memory required for data: 150995712
I1102 21:11:37.031366 31188 layer_factory.hpp:77] Creating layer conv1
I1102 21:11:37.031379 31188 net.cpp:84] Creating Layer conv1
I1102 21:11:37.031384 31188 net.cpp:406] conv1 <- data/scale
I1102 21:11:37.031390 31188 net.cpp:380] conv1 -> conv1
I1102 21:11:37.523548 31188 net.cpp:122] Setting up conv1
I1102 21:11:37.523586 31188 net.cpp:129] Top shape: 64 96 62 62 (23617536)
I1102 21:11:37.523591 31188 net.cpp:137] Memory required for data: 245465856
I1102 21:11:37.523602 31188 layer_factory.hpp:77] Creating layer conv1/bn
I1102 21:11:37.523613 31188 net.cpp:84] Creating Layer conv1/bn
I1102 21:11:37.523618 31188 net.cpp:406] conv1/bn <- conv1
I1102 21:11:37.523627 31188 net.cpp:380] conv1/bn -> conv1/bn
I1102 21:11:37.523813 31188 net.cpp:122] Setting up conv1/bn
I1102 21:11:37.523821 31188 net.cpp:129] Top shape: 64 96 62 62 (23617536)
I1102 21:11:37.523824 31188 net.cpp:137] Memory required for data: 339936000
I1102 21:11:37.523838 31188 layer_factory.hpp:77] Creating layer relu1
I1102 21:11:37.523844 31188 net.cpp:84] Creating Layer relu1
I1102 21:11:37.523847 31188 net.cpp:406] relu1 <- conv1/bn
I1102 21:11:37.523854 31188 net.cpp:380] relu1 -> norm1
I1102 21:11:37.524389 31188 net.cpp:122] Setting up relu1
I1102 21:11:37.524402 31188 net.cpp:129] Top shape: 64 96 62 62 (23617536)
I1102 21:11:37.524406 31188 net.cpp:137] Memory required for data: 434406144
I1102 21:11:37.524410 31188 layer_factory.hpp:77] Creating layer pool1
I1102 21:11:37.524418 31188 net.cpp:84] Creating Layer pool1
I1102 21:11:37.524422 31188 net.cpp:406] pool1 <- norm1
I1102 21:11:37.524427 31188 net.cpp:380] pool1 -> pool1
I1102 21:11:37.524474 31188 net.cpp:122] Setting up pool1
I1102 21:11:37.524482 31188 net.cpp:129] Top shape: 64 96 31 31 (5904384)
I1102 21:11:37.524484 31188 net.cpp:137] Memory required for data: 458023680
I1102 21:11:37.524505 31188 layer_factory.hpp:77] Creating layer conv2
I1102 21:11:37.524515 31188 net.cpp:84] Creating Layer conv2
I1102 21:11:37.524526 31188 net.cpp:406] conv2 <- pool1
I1102 21:11:37.524540 31188 net.cpp:380] conv2 -> conv2
I1102 21:11:37.528399 31188 net.cpp:122] Setting up conv2
I1102 21:11:37.528415 31188 net.cpp:129] Top shape: 64 256 31 31 (15745024)
I1102 21:11:37.528419 31188 net.cpp:137] Memory required for data: 521003776
I1102 21:11:37.528425 31188 layer_factory.hpp:77] Creating layer conv2/bn
I1102 21:11:37.528434 31188 net.cpp:84] Creating Layer conv2/bn
I1102 21:11:37.528439 31188 net.cpp:406] conv2/bn <- conv2
I1102 21:11:37.528445 31188 net.cpp:380] conv2/bn -> conv2/bn
I1102 21:11:37.528620 31188 net.cpp:122] Setting up conv2/bn
I1102 21:11:37.528627 31188 net.cpp:129] Top shape: 64 256 31 31 (15745024)
I1102 21:11:37.528630 31188 net.cpp:137] Memory required for data: 583983872
I1102 21:11:37.528637 31188 layer_factory.hpp:77] Creating layer relu2
I1102 21:11:37.528642 31188 net.cpp:84] Creating Layer relu2
I1102 21:11:37.528646 31188 net.cpp:406] relu2 <- conv2/bn
I1102 21:11:37.528651 31188 net.cpp:380] relu2 -> norm2
I1102 21:11:37.529031 31188 net.cpp:122] Setting up relu2
I1102 21:11:37.529042 31188 net.cpp:129] Top shape: 64 256 31 31 (15745024)
I1102 21:11:37.529045 31188 net.cpp:137] Memory required for data: 646963968
I1102 21:11:37.529049 31188 layer_factory.hpp:77] Creating layer pool2
I1102 21:11:37.529057 31188 net.cpp:84] Creating Layer pool2
I1102 21:11:37.529060 31188 net.cpp:406] pool2 <- norm2
I1102 21:11:37.529065 31188 net.cpp:380] pool2 -> pool2
I1102 21:11:37.529103 31188 net.cpp:122] Setting up pool2
I1102 21:11:37.529110 31188 net.cpp:129] Top shape: 64 256 15 15 (3686400)
I1102 21:11:37.529114 31188 net.cpp:137] Memory required for data: 661709568
I1102 21:11:37.529116 31188 layer_factory.hpp:77] Creating layer conv3
I1102 21:11:37.529124 31188 net.cpp:84] Creating Layer conv3
I1102 21:11:37.529129 31188 net.cpp:406] conv3 <- pool2
I1102 21:11:37.529134 31188 net.cpp:380] conv3 -> conv3
I1102 21:11:37.532307 31188 net.cpp:122] Setting up conv3
I1102 21:11:37.532328 31188 net.cpp:129] Top shape: 64 384 15 15 (5529600)
I1102 21:11:37.532332 31188 net.cpp:137] Memory required for data: 683827968
I1102 21:11:37.532342 31188 layer_factory.hpp:77] Creating layer conv3/bn
I1102 21:11:37.532351 31188 net.cpp:84] Creating Layer conv3/bn
I1102 21:11:37.532356 31188 net.cpp:406] conv3/bn <- conv3
I1102 21:11:37.532361 31188 net.cpp:380] conv3/bn -> conv3/bn
I1102 21:11:37.532544 31188 net.cpp:122] Setting up conv3/bn
I1102 21:11:37.532552 31188 net.cpp:129] Top shape: 64 384 15 15 (5529600)
I1102 21:11:37.532555 31188 net.cpp:137] Memory required for data: 705946368
I1102 21:11:37.532562 31188 layer_factory.hpp:77] Creating layer relu3
I1102 21:11:37.532567 31188 net.cpp:84] Creating Layer relu3
I1102 21:11:37.532572 31188 net.cpp:406] relu3 <- conv3/bn
I1102 21:11:37.532575 31188 net.cpp:367] relu3 -> conv3/bn (in-place)
I1102 21:11:37.533076 31188 net.cpp:122] Setting up relu3
I1102 21:11:37.533089 31188 net.cpp:129] Top shape: 64 384 15 15 (5529600)
I1102 21:11:37.533093 31188 net.cpp:137] Memory required for data: 728064768
I1102 21:11:37.533097 31188 layer_factory.hpp:77] Creating layer conv4
I1102 21:11:37.533105 31188 net.cpp:84] Creating Layer conv4
I1102 21:11:37.533109 31188 net.cpp:406] conv4 <- conv3/bn
I1102 21:11:37.533116 31188 net.cpp:380] conv4 -> conv4
I1102 21:11:37.537200 31188 net.cpp:122] Setting up conv4
I1102 21:11:37.537217 31188 net.cpp:129] Top shape: 64 384 15 15 (5529600)
I1102 21:11:37.537221 31188 net.cpp:137] Memory required for data: 750183168
I1102 21:11:37.537227 31188 layer_factory.hpp:77] Creating layer conv4/bn
I1102 21:11:37.537238 31188 net.cpp:84] Creating Layer conv4/bn
I1102 21:11:37.537243 31188 net.cpp:406] conv4/bn <- conv4
I1102 21:11:37.537250 31188 net.cpp:380] conv4/bn -> conv4/bn
I1102 21:11:37.537423 31188 net.cpp:122] Setting up conv4/bn
I1102 21:11:37.537431 31188 net.cpp:129] Top shape: 64 384 15 15 (5529600)
I1102 21:11:37.537436 31188 net.cpp:137] Memory required for data: 772301568
I1102 21:11:37.537441 31188 layer_factory.hpp:77] Creating layer relu4
I1102 21:11:37.537453 31188 net.cpp:84] Creating Layer relu4
I1102 21:11:37.537464 31188 net.cpp:406] relu4 <- conv4/bn
I1102 21:11:37.537468 31188 net.cpp:367] relu4 -> conv4/bn (in-place)
I1102 21:11:37.537833 31188 net.cpp:122] Setting up relu4
I1102 21:11:37.537847 31188 net.cpp:129] Top shape: 64 384 15 15 (5529600)
I1102 21:11:37.537849 31188 net.cpp:137] Memory required for data: 794419968
I1102 21:11:37.537853 31188 layer_factory.hpp:77] Creating layer conv5
I1102 21:11:37.537860 31188 net.cpp:84] Creating Layer conv5
I1102 21:11:37.537863 31188 net.cpp:406] conv5 <- conv4/bn
I1102 21:11:37.537870 31188 net.cpp:380] conv5 -> conv5
I1102 21:11:37.541676 31188 net.cpp:122] Setting up conv5
I1102 21:11:37.541692 31188 net.cpp:129] Top shape: 64 256 15 15 (3686400)
I1102 21:11:37.541697 31188 net.cpp:137] Memory required for data: 809165568
I1102 21:11:37.541703 31188 layer_factory.hpp:77] Creating layer conv5/bn
I1102 21:11:37.541709 31188 net.cpp:84] Creating Layer conv5/bn
I1102 21:11:37.541713 31188 net.cpp:406] conv5/bn <- conv5
I1102 21:11:37.541720 31188 net.cpp:380] conv5/bn -> conv5/bn
I1102 21:11:37.541893 31188 net.cpp:122] Setting up conv5/bn
I1102 21:11:37.541903 31188 net.cpp:129] Top shape: 64 256 15 15 (3686400)
I1102 21:11:37.541905 31188 net.cpp:137] Memory required for data: 823911168
I1102 21:11:37.541911 31188 layer_factory.hpp:77] Creating layer relu5
I1102 21:11:37.541918 31188 net.cpp:84] Creating Layer relu5
I1102 21:11:37.541921 31188 net.cpp:406] relu5 <- conv5/bn
I1102 21:11:37.541926 31188 net.cpp:367] relu5 -> conv5/bn (in-place)
I1102 21:11:37.542544 31188 net.cpp:122] Setting up relu5
I1102 21:11:37.542557 31188 net.cpp:129] Top shape: 64 256 15 15 (3686400)
I1102 21:11:37.542562 31188 net.cpp:137] Memory required for data: 838656768
I1102 21:11:37.542565 31188 layer_factory.hpp:77] Creating layer pool5
I1102 21:11:37.542572 31188 net.cpp:84] Creating Layer pool5
I1102 21:11:37.542575 31188 net.cpp:406] pool5 <- conv5/bn
I1102 21:11:37.542582 31188 net.cpp:380] pool5 -> pool5
I1102 21:11:37.542629 31188 net.cpp:122] Setting up pool5
I1102 21:11:37.542635 31188 net.cpp:129] Top shape: 64 256 7 7 (802816)
I1102 21:11:37.542639 31188 net.cpp:137] Memory required for data: 841868032
I1102 21:11:37.542641 31188 layer_factory.hpp:77] Creating layer fc6-new
I1102 21:11:37.542647 31188 net.cpp:84] Creating Layer fc6-new
I1102 21:11:37.542651 31188 net.cpp:406] fc6-new <- pool5
I1102 21:11:37.542657 31188 net.cpp:380] fc6-new -> fc6-new
I1102 21:11:37.988505 31188 net.cpp:122] Setting up fc6-new
I1102 21:11:37.988543 31188 net.cpp:129] Top shape: 64 4096 (262144)
I1102 21:11:37.988546 31188 net.cpp:137] Memory required for data: 842916608
I1102 21:11:37.988556 31188 layer_factory.hpp:77] Creating layer fc6/bn-new
I1102 21:11:37.988567 31188 net.cpp:84] Creating Layer fc6/bn-new
I1102 21:11:37.988572 31188 net.cpp:406] fc6/bn-new <- fc6-new
I1102 21:11:37.988579 31188 net.cpp:380] fc6/bn-new -> fc6/bn-new
I1102 21:11:37.988752 31188 net.cpp:122] Setting up fc6/bn-new
I1102 21:11:37.988760 31188 net.cpp:129] Top shape: 64 4096 (262144)
I1102 21:11:37.988764 31188 net.cpp:137] Memory required for data: 843965184
I1102 21:11:37.988775 31188 layer_factory.hpp:77] Creating layer relu6
I1102 21:11:37.988782 31188 net.cpp:84] Creating Layer relu6
I1102 21:11:37.988786 31188 net.cpp:406] relu6 <- fc6/bn-new
I1102 21:11:37.988790 31188 net.cpp:367] relu6 -> fc6/bn-new (in-place)
I1102 21:11:37.989414 31188 net.cpp:122] Setting up relu6
I1102 21:11:37.989426 31188 net.cpp:129] Top shape: 64 4096 (262144)
I1102 21:11:37.989429 31188 net.cpp:137] Memory required for data: 845013760
I1102 21:11:37.989434 31188 layer_factory.hpp:77] Creating layer drop6
I1102 21:11:37.989439 31188 net.cpp:84] Creating Layer drop6
I1102 21:11:37.989444 31188 net.cpp:406] drop6 <- fc6/bn-new
I1102 21:11:37.989449 31188 net.cpp:367] drop6 -> fc6/bn-new (in-place)
I1102 21:11:37.989480 31188 net.cpp:122] Setting up drop6
I1102 21:11:37.989486 31188 net.cpp:129] Top shape: 64 4096 (262144)
I1102 21:11:37.989490 31188 net.cpp:137] Memory required for data: 846062336
I1102 21:11:37.989500 31188 layer_factory.hpp:77] Creating layer fc7-new
I1102 21:11:37.989513 31188 net.cpp:84] Creating Layer fc7-new
I1102 21:11:37.989517 31188 net.cpp:406] fc7-new <- fc6/bn-new
I1102 21:11:37.989523 31188 net.cpp:380] fc7-new -> fc7-new
I1102 21:11:38.133617 31188 net.cpp:122] Setting up fc7-new
I1102 21:11:38.133653 31188 net.cpp:129] Top shape: 64 4096 (262144)
I1102 21:11:38.133657 31188 net.cpp:137] Memory required for data: 847110912
I1102 21:11:38.133666 31188 layer_factory.hpp:77] Creating layer fc7/bn-new
I1102 21:11:38.133677 31188 net.cpp:84] Creating Layer fc7/bn-new
I1102 21:11:38.133682 31188 net.cpp:406] fc7/bn-new <- fc7-new
I1102 21:11:38.133688 31188 net.cpp:380] fc7/bn-new -> fc7/bn-new
I1102 21:11:38.133873 31188 net.cpp:122] Setting up fc7/bn-new
I1102 21:11:38.133882 31188 net.cpp:129] Top shape: 64 4096 (262144)
I1102 21:11:38.133885 31188 net.cpp:137] Memory required for data: 848159488
I1102 21:11:38.133893 31188 layer_factory.hpp:77] Creating layer relu7
I1102 21:11:38.133898 31188 net.cpp:84] Creating Layer relu7
I1102 21:11:38.133901 31188 net.cpp:406] relu7 <- fc7/bn-new
I1102 21:11:38.133905 31188 net.cpp:367] relu7 -> fc7/bn-new (in-place)
I1102 21:11:38.134318 31188 net.cpp:122] Setting up relu7
I1102 21:11:38.134330 31188 net.cpp:129] Top shape: 64 4096 (262144)
I1102 21:11:38.134332 31188 net.cpp:137] Memory required for data: 849208064
I1102 21:11:38.134335 31188 layer_factory.hpp:77] Creating layer drop7
I1102 21:11:38.134342 31188 net.cpp:84] Creating Layer drop7
I1102 21:11:38.134346 31188 net.cpp:406] drop7 <- fc7/bn-new
I1102 21:11:38.134351 31188 net.cpp:367] drop7 -> fc7/bn-new (in-place)
I1102 21:11:38.134380 31188 net.cpp:122] Setting up drop7
I1102 21:11:38.134387 31188 net.cpp:129] Top shape: 64 4096 (262144)
I1102 21:11:38.134389 31188 net.cpp:137] Memory required for data: 850256640
I1102 21:11:38.134392 31188 layer_factory.hpp:77] Creating layer fc8-new
I1102 21:11:38.134398 31188 net.cpp:84] Creating Layer fc8-new
I1102 21:11:38.134402 31188 net.cpp:406] fc8-new <- fc7/bn-new
I1102 21:11:38.134407 31188 net.cpp:380] fc8-new -> fc8-new
I1102 21:11:38.135180 31188 net.cpp:122] Setting up fc8-new
I1102 21:11:38.135193 31188 net.cpp:129] Top shape: 64 8 (512)
I1102 21:11:38.135196 31188 net.cpp:137] Memory required for data: 850258688
I1102 21:11:38.135202 31188 layer_factory.hpp:77] Creating layer fc8-new_fc8-new_0_split
I1102 21:11:38.135208 31188 net.cpp:84] Creating Layer fc8-new_fc8-new_0_split
I1102 21:11:38.135212 31188 net.cpp:406] fc8-new_fc8-new_0_split <- fc8-new
I1102 21:11:38.135217 31188 net.cpp:380] fc8-new_fc8-new_0_split -> fc8-new_fc8-new_0_split_0
I1102 21:11:38.135226 31188 net.cpp:380] fc8-new_fc8-new_0_split -> fc8-new_fc8-new_0_split_1
I1102 21:11:38.135260 31188 net.cpp:122] Setting up fc8-new_fc8-new_0_split
I1102 21:11:38.135267 31188 net.cpp:129] Top shape: 64 8 (512)
I1102 21:11:38.135269 31188 net.cpp:129] Top shape: 64 8 (512)
I1102 21:11:38.135272 31188 net.cpp:137] Memory required for data: 850262784
I1102 21:11:38.135275 31188 layer_factory.hpp:77] Creating layer accuracy
I1102 21:11:38.135284 31188 net.cpp:84] Creating Layer accuracy
I1102 21:11:38.135288 31188 net.cpp:406] accuracy <- fc8-new_fc8-new_0_split_0
I1102 21:11:38.135293 31188 net.cpp:406] accuracy <- label_data_1_split_0
I1102 21:11:38.135298 31188 net.cpp:380] accuracy -> accuracy
…
